Print all hyperparameters: 2 2 80 0.001 conv
Network: Sequential(
  (0): Conv2d(2, 80, kernel_size=(3, 3), stride=(1, 1), padding=(1, 1), padding_mode=circular)
  (1): Swish()
  (2): Conv2d(80, 80, kernel_size=(3, 3), stride=(1, 1), padding=(1, 1), padding_mode=circular)
  (3): Swish()
  (4): Conv2d(80, 80, kernel_size=(3, 3), stride=(1, 1), padding=(1, 1), padding_mode=circular)
  (5): Swish()
  (6): Conv2d(80, 2, kernel_size=(3, 3), stride=(1, 1), padding=(1, 1), padding_mode=circular)
)
Print all hyperparameters: 2 2 80 0.001 conv
Network: Sequential(
  (0): Conv2d(2, 80, kernel_size=(3, 3), stride=(1, 1), padding=(1, 1), padding_mode=circular)
  (1): Swish()
  (2): Conv2d(80, 80, kernel_size=(3, 3), stride=(1, 1), padding=(1, 1), padding_mode=circular)
  (3): Swish()
  (4): Conv2d(80, 80, kernel_size=(3, 3), stride=(1, 1), padding=(1, 1), padding_mode=circular)
  (5): Swish()
  (6): Conv2d(80, 2, kernel_size=(3, 3), stride=(1, 1), padding=(1, 1), padding_mode=circular)
)
Print all hyperparameters: 2 2 80 0.001 conv
Network: Sequential(
  (0): Conv2d(2, 80, kernel_size=(3, 3), stride=(1, 1), padding=(1, 1), padding_mode=circular)
  (1): Swish()
  (2): Conv2d(80, 80, kernel_size=(3, 3), stride=(1, 1), padding=(1, 1), padding_mode=circular)
  (3): Swish()
  (4): Conv2d(80, 80, kernel_size=(3, 3), stride=(1, 1), padding=(1, 1), padding_mode=circular)
  (5): Swish()
  (6): Conv2d(80, 2, kernel_size=(3, 3), stride=(1, 1), padding=(1, 1), padding_mode=circular)
)
Print all hyperparameters: 2 2 80 0.001 conv
Network: Sequential(
  (0): Conv2d(2, 80, kernel_size=(3, 3), stride=(1, 1), padding=(1, 1), padding_mode=circular)
  (1): Swish()
  (2): Conv2d(80, 80, kernel_size=(3, 3), stride=(1, 1), padding=(1, 1), padding_mode=circular)
  (3): Swish()
  (4): Conv2d(80, 80, kernel_size=(3, 3), stride=(1, 1), padding=(1, 1), padding_mode=circular)
  (5): Swish()
  (6): Conv2d(80, 2, kernel_size=(3, 3), stride=(1, 1), padding=(1, 1), padding_mode=circular)
)
Print all hyperparameters: 2 2 80 0.001 conv
Network: Sequential(
  (0): Conv2d(2, 80, kernel_size=(3, 3), stride=(1, 1), padding=(1, 1), padding_mode=circular)
  (1): Swish()
  (2): Conv2d(80, 80, kernel_size=(3, 3), stride=(1, 1), padding=(1, 1), padding_mode=circular)
  (3): Swish()
  (4): Conv2d(80, 80, kernel_size=(3, 3), stride=(1, 1), padding=(1, 1), padding_mode=circular)
  (5): Swish()
  (6): Conv2d(80, 2, kernel_size=(3, 3), stride=(1, 1), padding=(1, 1), padding_mode=circular)
)
Print all hyperparameters: 2 2 80 0.001 conv
Network: Sequential(
  (0): Conv2d(2, 80, kernel_size=(3, 3), stride=(1, 1), padding=(1, 1), padding_mode=circular)
  (1): Swish()
  (2): Conv2d(80, 80, kernel_size=(3, 3), stride=(1, 1), padding=(1, 1), padding_mode=circular)
  (3): Swish()
  (4): Conv2d(80, 80, kernel_size=(3, 3), stride=(1, 1), padding=(1, 1), padding_mode=circular)
  (5): Swish()
  (6): Conv2d(80, 2, kernel_size=(3, 3), stride=(1, 1), padding=(1, 1), padding_mode=circular)
)
Print all hyperparameters: 2 2 80 0.001 conv
Network: Sequential(
  (0): Conv2d(2, 80, kernel_size=(3, 3), stride=(1, 1), padding=(1, 1), padding_mode=circular)
  (1): Swish()
  (2): Conv2d(80, 80, kernel_size=(3, 3), stride=(1, 1), padding=(1, 1), padding_mode=circular)
  (3): Swish()
  (4): Conv2d(80, 80, kernel_size=(3, 3), stride=(1, 1), padding=(1, 1), padding_mode=circular)
  (5): Swish()
  (6): Conv2d(80, 2, kernel_size=(3, 3), stride=(1, 1), padding=(1, 1), padding_mode=circular)
)
Print all hyperparameters: 2 2 80 0.001 conv
Network: Sequential(
  (0): Conv2d(2, 80, kernel_size=(3, 3), stride=(1, 1), padding=(1, 1), padding_mode=circular)
  (1): Swish()
  (2): Conv2d(80, 80, kernel_size=(3, 3), stride=(1, 1), padding=(1, 1), padding_mode=circular)
  (3): Swish()
  (4): Conv2d(80, 80, kernel_size=(3, 3), stride=(1, 1), padding=(1, 1), padding_mode=circular)
  (5): Swish()
  (6): Conv2d(80, 2, kernel_size=(3, 3), stride=(1, 1), padding=(1, 1), padding_mode=circular)
)
Print all hyperparameters: 2 2 80 0.001 conv
Network: Sequential(
  (0): Conv2d(2, 80, kernel_size=(3, 3), stride=(1, 1), padding=(1, 1), padding_mode=circular)
  (1): Swish()
  (2): Conv2d(80, 80, kernel_size=(3, 3), stride=(1, 1), padding=(1, 1), padding_mode=circular)
  (3): Swish()
  (4): Conv2d(80, 80, kernel_size=(3, 3), stride=(1, 1), padding=(1, 1), padding_mode=circular)
  (5): Swish()
  (6): Conv2d(80, 2, kernel_size=(3, 3), stride=(1, 1), padding=(1, 1), padding_mode=circular)
)
Print all hyperparameters: 2 2 80 0.001 conv
Network: Sequential(
  (0): Conv2d(2, 80, kernel_size=(3, 3), stride=(1, 1), padding=(1, 1), padding_mode=circular)
  (1): Swish()
  (2): Conv2d(80, 80, kernel_size=(3, 3), stride=(1, 1), padding=(1, 1), padding_mode=circular)
  (3): Swish()
  (4): Conv2d(80, 80, kernel_size=(3, 3), stride=(1, 1), padding=(1, 1), padding_mode=circular)
  (5): Swish()
  (6): Conv2d(80, 2, kernel_size=(3, 3), stride=(1, 1), padding=(1, 1), padding_mode=circular)
)
Number of learnable parameters: 118325
train_leads.py bt --device cuda:0
Calling the run method
generating 0,0
generating 1,0
generating 2,0
generating 3,0
generating 4,0
generating 5,0
generating 6,0
generating 7,0
generating 8,0
[1][1/2000][1/1] | loss: 2.408e+00 | loss_train: 5.320e-01 | loss_e0: 2.991e+00 | loss_e1: 4.323e+00 | loss_e2: 5.600e+00 | loss_e3: 1.487e+00 | loss_e4: 1.872e+00 | loss_e5: 2.894e+00 | loss_e6: 7.141e-01 | loss_e7: 8.014e-01 | loss_e8: 9.877e-01
…
